…
span class="number">128</span>, activation=<span class="string">'relu'</span>))</span><br><span class="line">model.add(Dense(<span class="number">10</span>, activation=<span class="string">'softmax'</span>))</span><br><span class="line"></span><br><span class="line">print(model.summary())</span><br></pre></td></tr></table></figure><pre><code>Model: &quot;sequential_10&quot;_________________________________________________________________Layer (type)                 Output Shape              Param #   =================================================================conv2d_9 (Conv2D)            (None, 28, 28, 32)        320       _________________________________________________________________max_pooling2d_7 (MaxPooling2 (None, 14, 14, 32)        0         _________________________________________________________________flatten_6 (Flatten)          (None, 6272)              0         _________________________________________________________________dense_9 (Dense)              (None, 128)               802944    _________________________________________________________________dense_10 (Dense)             (None, 10)                1290      =================================================================Total params: 804,554Trainable params: 804,554Non-trainable params: 0_________________________________________________________________None</code></pre><figure class="highlight python"><table><tr><td class="gutter"><pre><span class="line">1</span><br><span class="line">2</span><br><span class="line">3</span><br><span class="line
…
mment"># Dropout 설정</span></span><br><span class="line">model.add(Dense(<span class="number">10</span>, activation=<span class="string">'softmax'</span>)) <span class="comment"># 다중 분류 문제이기 때문에 softmax</span></span><br><span class="line"></span><br><span class="line">print(model.summary())</span><br></pre></td></tr></table></figure><pre><code>Model: &quot;sequential_5&quot;_________________________________________________________________Layer (type)                 Output Shape              Param #   =================================================================conv2d_5 (Conv2D)            (None, 28, 28, 32)        320       _________________________________________________________________max_pooling2d_5 (MaxPooling2 (None, 14, 14, 32)        0         _________________________________________________________________flatten_5 (Flatten)          (None, 6272)              0         _________________________________________________________________dense_5 (Dense)              (None, 128)               802944    _________________________________________________________________dropout_2 (Dropout)          (None, 128)               0         _________________________________________________________________dense_6 (Dense)              (None, 10)                1290      =================================================================Total params: 804,554Trainable params: 804,554Non-trainable params: 0_________________________________________________________________None</code></pre><figure class="highlight python"><table><tr><td class="gutter"><pre><span class="line">1</span><br><span class="line">2</span><br><span class="line">3</span><br><span class="line
…
/span><br><span class="line">model.add(Dropout(<span class="number">0.2</span>))</span><br><span class="line">model.add(Dense(<span class="number">10</span>, activation=<span class="string">'softmax'</span>))</span><br><span class="line"></span><br><span class="line">print(model.summary())</span><br></pre></td></tr></table></figure><pre><code>Model: &quot;sequential_7&quot;_________________________________________________________________Layer (type)                 Output Shape              Param #   =================================================================conv2d_10 (Conv2D)           (None, 32, 32, 32)        896       _________________________________________________________________conv2d_11 (Conv2D)           (None, 32, 32, 64)        18496     _________________________________________________________________max_pooling2d_7 (MaxPooling2 (None, 16, 16, 64)        0         _________________________________________________________________flatten_7 (Flatten)          (None, 16384)             0         _________________________________________________________________dense_16 (Dense)             (None, 128)               2097280   _________________________________________________________________dropout_11 (Dropout)         (None, 128)               0         _________________________________________________________________dense_17 (Dense)             (None, 64)                8256      _________________________________________________________________dropout_12 (Dropout)         (None, 64)                0         _________________________________________________________________dense_18 (Dense)             (None, 10)                650       =================================================================Total params: 2,125,578Trainable params: 2,125,578Non-trainable params: 0_________________________________________________________________None</code></pre><figure class="highlight python"><table><tr><td class="gutter"><pre><span class="line">1</span><br><span class="line">2</span><br><span class="line">3</span><br><span class=
…
